public/webnn-test/model_vb.onnx (onnx, 714607 bytes, 100 tensors)

yuv2rgb.weight f4 [3, 3, 1, 1]
0.01390627 0.0 0.01949659 0.01390627 -0.0047857 -0.00993102 0.01390627 0.02464191
0.0
00000000: 20d7 633c 0000 0000 50b7 9f3c 20d7 633c
00000010: 5cd1 9cbb b8b5 22bc 20d7 633c d5dd c93c
00000020: 0000 0000

yuv2rgb.bias f4 [3]
-4.3216314 0.25155056 -4.668794
00000000: ce4a 8ac0 3ccb 803e c366 95c0

model.encoder.initial_block.conv.weight f4 [16, 3, 3, 3]
-0.022480806 -0.019901568 0.012248955 -0.013936324 0.020481087 0.08881564 -0.09191646 -0.15244958
0.019396888 -0.053041644 -0.05612392 -0.08006798 0.047663424 0.14021699 0.03132108 0.15970224
0.3523886 0.17621149 0.06916589 0.091483444 0.074593335 -0.020520944 -0.20165943 -0.18588033
-0.0683649 -0.23503095 -0.20258833 -0.024903296 -0.23731397 -0.13168898 0.09150558 0.47844973
0.16084652 -0.06451424 -0.24589968 -0.024868134 0.024689209 -0.15113792 -0.08908023 0.07797137
0.37404898 0.1361658 -0.10380354 -0.22542295 -0.0511348 -0.0021764853 -0.4056965 -0.1605081
0.09370199 0.42726806 0.12625629 -0.09069751 -0.013991481 0.027804699 0.013967837 0.16292632
0.06791791 0.15237515 0.030656904 -0.11008217 0.013345314 -0.23200157 -0.09891291 0.01841318
0.16485867 0.065448165 0.16781285 0.10593431 -0.1359344 0.018008417 -0.27506125 -0.13330331
-0.023850529 0.06969482 0.03136176 0.13085558 0.12986644 -0.09990613 0.03817066 -0.16059281
-0.11462356 0.06686288 -0.05857637 -0.00813239 0.16288067 -0.059533093 0.065310225 -0.21614584
-0.24593449 0.3262115 0.06664126 -0.023886304 -0.07133168 0.23202682 -0.05871892 -0.09443927
-0.15701802 -0.20817298 0.30663633 0.05630619 -0.025607008 -0.15363745 0.20450437 -0.0416598
-0.20922834 -0.07255213 -0.075860776 0.32569477 -1.7548296e-05 0.06573613 -1.4105792e-05 0.048159003
-0.18097717 0.08605247 -1.799999e-05 0.117553174 -1.8356568e-05 -1.0422601e-05 0.09675509 -1.6580354e-05
0.050264087 -0.13612172 -0.008081185 -9.26784e-06 -0.24061878 -1.2449851e-05 3.929816e-06 -0.04385472
-1.6398305e-06 -0.0026123135 0.0061582783 -0.061859846 1.3636411e-06 -0.037224505 -4.029805e-08 0.030785361
0.13841495 0.016532162 -0.1939282 -0.011329204 0.2549546 -0.12920387 -0.17611182 0.07420794
0.012258433 0.12123458 0.0055388487 -0.1922553 0.0591489 0.24023953 -0.11643807 -0.18789014
0.04683798 0.007675762 0.071598716 -0.0073723993 -0.13203584 0.05459591 0.16980173 -0.08852863
-0.13079578 0.05879704 0.015000387 0.115489036 0.1568067 0.07733988 -0.027418677 -0.17205603
0.08393106 -0.25919387 -0.42204565 -0.08592072 -0.15829737 -0.17586724 -0.021390129 0.077625856
0.15006559 0.044658244 0.36195743 0.4074914 0.08198573 0.035488803 0.018859513 -0.03618296
-0.06719833 0.03721614 -0.15367065 -0.1419349 0.07099081 -0.069139704 0.08706069 -0.02696553
-0.17295188 0.50104105 -0.16042939 -0.18397774 0.110262685 -0.070042975 -0.083797984 -0.011096964
-0.10145441 -0.08471288 0.51967883 -0.15329254 -0.17100993 0.16386291 -0.07082284 -0.062704146
-0.04251884 -0.085737765 -0.11366614 0.5609362 -0.21821842 -0.20285405 0.27774256 -0.10181558
-0.0017743204 -0.06965844 -0.02288481 0.12960418 -0.066919215 -0.20778072 0.12990782 0.16035825
-0.050341647 0.02013064 -0.07397912 -0.041060295 0.14422974 -0.05936564 -0.23051068 0.12808491
0.15616003 -0.054334078 -0.0016872452 -0.04534011 -0.02597307 0.11107159 -0.034535505 -0.2004721
0.09397325 0.15919022 -0.044902474 7.07787e-06 0.15217055 3.9388647e-06 0.07700563 -0.15281507
0.023459844 -1.3082672e-05 0.017637875 -6.5860336e-06 1.080931e-05 -0.24448363 7.199036e-06 -0.061440412
00000000: ab29 b8bc 9d08 a3bc d7af 483c 2e55 64bc
00000010: f4c7 a73c f9e4 b53d b23e bcbd be1b 1cbe
00000020: 39e6 9e3c 3242 59bd 32e2 65bd aefa a3bd
00000030: b93a 433d 0b95 0f3e 884a 003d fc88 233e
00000040: 476c b43e c970 343e d9a6 8d3d ac5b bb3d
00000050: 64c4 983d 8a1b a8bc cf7f 4ebe 6a57 3ebe
00000060: e602 8cbd f4ab 70be 5173 4fbe ff01 ccbc
00000070: 6f02 73be 7ad9 06be 4767 bb3d 5df7 f43e
00000080: f3b4 243e 0b20 84bd 20cd 7bbe 42b8 cbbc
00000090: 0641 ca3c e6c3 1abe b26f b6bd 74af 9f3d
000000a0: 5983 bf3e 0c6f 0b3e f396 d4bd 46d5 66be
000000b0: b972 51bd 5da3 0ebb 74b7 cfbe 3c5c 24be
000000c0: d4e6 bf3d e1c2 da3e 5449 013e 9ebf b9bd
000000d0: 863c 65bc aec6 e33c 5bd9 643c 28d6 263e
000000e0: 8c18 8b3d 3b08 1c3e 3024 fb3c c372 e1bd
000000f0: 4ea6 5a3c d291 6dbe da92 cabd 3dd7 963c
00000100: b6d0 283e b009 863d 22d7 2b3e 16f4 d83d
00000110: 6332 0bbe 6386 933c d4d4 8cbe aa80 08be
00000120: 2f62 c3bc 28bc 8e3d 3075 003d 01ff 053e
00000130: b5fb 043e 969b ccbd d758 1c3d 7172 24be
00000140: c2bf eabd 68ef 883d c7ed 6fbd b73d 05bc
00000150: 31ca 263e f9d8 73bd 5ec1 853d 5655 5dbe
00000160: 40d6 7bbe 3205 a73e 377b 883d 36ad c3bc
00000170: 5816 92bd 7098 6d3e 4083 70bd 6069 c1bd
00000180: 55c9 20be 4c2b 55be 70ff 9c3e 52a1 663d
00000190: cac5 d1bc 2353 1dbe 9869 513e 77a3 2abd
000001a0: f43f 56be 3696 94bd e55c 9bbd 77c1 a63e
000001b0: ae34 93b7 aaa0 863d eaa7 6cb7 6042 453d
000001c0: 1452 39be 473c b03d affe 96b7 b8bf f03d
000001d0: 6efc 99b7 bbdc 2eb7 8827 c63d 0a16 8bb7
000001e0: b7e1 4d3d 7e63 0bbe f266 04bc 127d 1bb7
000001f0: c564 76be b4df 50b7 dddc 8336 02a1 33bd
00000200: 2618 dcb5 5933 2bbb 62cb c93b c060 7dbd
00000210: 5a06 b735 b978 18bd 2d14 2db3 9531 fc3c
00000220: a6bc 0d3e 756e 873c 1d95 46be 209e 39bc
00000230: 6989 823e 054e 04be a856 34be 55fa 973d
00000240: 98d7 483c d649 f83d 3b7f b53b 93de 44be
00000250: 1e46 723d 5a01 763e 1577 eebd 4666 40be
00000260: 2fd9 3f3d f584 fb3b 59a2 923d 2b94 f1bb
00000270: 6734 07be f69f 5f3d 81e0 2d3e 804e b5bd
00000280: 54ef 05be 2ad5 703d 2fc4 753c 8485 ec3d
00000290: f091 203e 5f64 9e3d 229d e0bc 752f 30be
000002a0: 0ce4 ab3d 0fb5 84be 5e16 d8be 34f7 afbd
000002b0: b518 22be 8b16 34be 5a3a afbc 4efa 9e3d
000002c0: cbaa 193e 90eb 363d 7c52 b93e b6a2 d03e
000002d0: 22e8 a73d b55c 113d 447f 9a3c 9534 14bd
000002e0: 479f 89bd f46f 183d d75b 1dbe 6257 11be
000002f0: a163 913d 1e99 8dbd e04c b23d d1e6 dcbc
00000300: 4c1a 31be 3a44 003f 9a47 24be a964 3cbe
00000310: 67d1 e13d b172 8fbd 479e abbd 0ad0 35bc
00000320: 54c7 cfbd f27d adbd ac09 053f b8f8 1cbe
00000330: 3a1d 2fbe aecb 273e 910b 91bd 086b 80bd
00000340: 3c28 2ebd 4897 afbd cbc9 e8bd 8499 0f3f
00000350: a674 5fbe f9b8 4fbe 4634 8e3e b084 d0bd
00000360: 5090 e8ba 16a9 8ebd ed78 bbbc f5b6 043e
00000370: f10c 89bd 78c4 54be 8e06 053e f434 243e
00000380: 0b33 4ebd 03e9 a43c 5d82 97bd d72e 28bd
00000390: f6b0 133e 6329 73bd fe0a 6cbe b128 033e
000003a0: 6ae8 1f3e 698d 5ebd 8e26 ddba 8db6 39bd
000003b0: 7ac5 d4bc 8079 e33d 1a75 0dbd 8f48 4dbe
000003c0: 0c75 c03d c302 233e a8eb 37bd 717e ed36
000003d0: 99d2 1b3e 972a 8436 21b5 9d3d 8e7b 1cbe
000003e0: dc2e c03c a67d 5bb7 4e7d 903c 99fd dcb6
000003f0: a259 3537 eb59 7abe 408f f136 f1a8 7bbd

model.encoder.initial_block.conv.bias f4 [16]
0.41567338 -0.0033455864 0.07277772 0.33672708 -0.15066527 0.0813203 0.19080324 0.37062463
0.08085692 -0.24162522 -0.02660887 0.8683719 0.2683759 0.08014746 0.22757535 0.00047973543
00000000: 24d3 d43e a041 5bbb 7c0c 953d 7e67 ac3e
00000010: ff47 1abe 428b a63d ed61 433e 83c2 bd3e
00000020: 5098 a53d 9a6c 77be d8fa d9bc 9f4d 5e3f
00000030: 9168 893e 5a24 a43d 8309 693e 0085 fb39

model.encoder.layers.0.conv.weight f4 [32, 16, 3, 3]
-0.0013493453 0.048436105 -0.0020640104 -0.05603674 0.3044007 -0.09496014 -1.0907151e-05 0.40980282
-0.0011133783 -0.00081748166 -0.008343591 -0.00027793035 -0.005722926 0.010343186 -0.007781832 0.0009175336
0.013486935 0.00019591575 0.00076515146 -0.005791703 -0.0009521388 -0.007199733 0.013413161 -0.021155858
2.8022384e-06 -0.013968905 0.00048542337 -0.0001819335 -0.009169853 0.0006169024 0.021666693 -0.021845682
-0.013341981 0.0028701054 -0.020206356 -0.0007526902 0.00059534825 0.10849841 0.00034798367 0.052080132
0.11398471 0.07387266 0.0009048462 0.15928505 0.0003732143 0.00018126628 0.0072528273 0.0013404273
0.01616341 0.0038369559 0.02476497 0.0021087301 0.017084703 -0.00030500733 -0.00037317246 -0.023473518
-0.00111749 -0.053907584 0.044255108 0.0053921062 -0.0007177693 0.0967641 0.001277046 -0.00078449515
0.00486506 0.00035592835 -0.0032054544 -0.002169353 -0.0031099012 -0.0009066142 0.012263614 0.0007839647
-0.00035297804 0.007014005 0.0009707161 0.008663297 -0.0029952056 0.04346676 -0.0008778682 0.0136294905
-0.0007975931 0.0001406625 0.0660547 5.2835847e-05 0.016704744 0.13360685 0.028948272 -0.0003916466
0.07056917 -0.00032127785 -0.00010518124 0.033231333 -9.521593e-05 -0.0026940235 0.017991403 -0.0773442
-0.0004554045 -0.15413257 -0.0005289768 8.818322e-05 0.011929321 0.00022529217 -0.006839328 0.0043355767
0.0009477511 0.00012415636 0.0027680122 -2.782212e-05 9.115232e-05 0.03561047 0.0006336528 0.042118188
0.07939726 0.051156025 0.0008015511 0.0006540776 -0.00042864992 0.00067231094 -0.0041089826 -0.001326344
0.015557742 -0.0037496332 -0.024723161 0.00023930307 0.008585731 1.1553111e-05 0.001382049 -0.087122254
0.0010601606 -0.024935424 -0.18786815 -0.070243254 0.0005568377 -0.22401927 -0.00033165672 0.00041275972
-0.0074445726 -0.0007676182 -0.0057764933 0.0076542627 0.010073181 0.0010675279 0.0121738585 -0.00092503836
0.025682738 0.03265634 0.029933093 -0.08471066 0.047078576 0.023878632 0.034608487 -0.12536038
0.009124407 -0.02195006 0.039886106 -0.03178571 0.029962027 -0.12521014 0.03228422 0.053677987
0.16633743 0.19368833 -0.033810914 -0.013542442 -0.013915461 -0.043167293 0.15504849 -0.009807146
0.035691973 -0.15342341 -0.06942073 0.0643095 0.01060962 -0.019231368 0.22346663 -0.29741007
-0.05874623 -0.25518227 0.15607595 0.0355379 -0.027622005 0.00074301194 0.05780701 -0.06631895
0.0063051265 0.1183764 0.07456125 -0.11196965 -0.1177884 0.10002732 -0.03178973 0.021979934
0.20397703 -0.629497 0.06627775 0.17550823 0.4439696 -0.15303116 0.006076205 -0.017576974
-0.05628648 0.048174098 -0.03656449 0.033971824 -0.013222949 0.053374738 -0.0052217436 0.013307554
-0.055440508 0.05903229 -0.06303794 -0.21712735 0.024206208 -0.40960953 0.49296054 -0.105192706
-0.13782628 -0.015023508 -0.02203875 0.21753871 0.62818223 -0.19602549 -0.2867929 -0.1945808
0.19338576 -0.017706169 0.023572296 0.15509044 -0.012065856 -0.046778135 0.030318037 -0.007559135
0.00059891626 -0.0029441093 -0.0070765726 0.014808622 -0.06311865 0.03169088 0.03914421 0.08493668
-0.009770866 -0.078734666 -0.00573696 0.024127563 -0.04869249 -0.048768118 -0.015447049 -0.010394122
-0.011480494 -0.0129636265 -0.008790676 -0.0094577605 -0.0063170255 0.07878647 -0.021920083 -0.10429879
00000000: 84dc b0ba f064 463d 5944 07bb c886 65bd
00000010: 69da 9b3e 767a c2bd dbfd 36b7 add1 d13e
00000020: c7ee 91ba 444c 56ba 8fb3 08bc 2eb7 91b9
00000030: 6287 bbbb 7776 293c bdfe febb a386 703a
00000040: 4ef8 5c3c bc6e 4d39 7294 483a 53c8 bdbb
00000050: f498 79ba bdeb ebbb e0c2 5b3c 0d4f adbc
00000060: 170e 3c36 d6dd 64bc 6c80 fe39 67c5 3eb9
00000070: 273d 16bc 9fb7 213a 597e b13c b7f5 b2bc
00000080: 5398 5abc 6118 3c3b cd87 a5bc 2f50 45ba
00000090: 2511 1c3a 6a34 de3d 9471 b639 fa51 553d
000000a0: d170 e93d 8d4a 973d 3333 6d3a 9f1b 233e
000000b0: faab c339 4c12 3e39 20a9 ed3b 47b1 af3a
000000c0: 2169 843c 7075 7b3b e8df ca3c 9f32 0a3b
000000d0: 38f5 8b3c 64e9 9fb9 5ca6 c3b9 894b c0bc
000000e0: be78 92ba 33ce 5cbd d844 353d 44b0 b03b
000000f0: af28 3cba 422c c63d 8e62 a73a 94a6 4dba
00000100: 156b 9f3b e59b ba39 9a12 52bb b42b 0ebb
00000110: 7ccf 4bbb d9a9 6dba 53ed 483c fb82 4d3a
00000120: e90f b9b9 bdd5 e53b a877 7e3a 80f0 0d3c
00000130: 364b 44bb 340a 323d bd20 66ba 3a4e 5f3c
00000140: 9115 51ba cd7e 1339 b047 873d 0f9c 5d38
00000150: 63d8 883c 3cd0 083e ed24 ed3c eb55 cdb9
00000160: 9286 903d 2f71 a8b9 c094 dcb8 941d 083d
00000170: aaae c7b8 378e 30bb b562 933c a366 9ebd
00000180: 5bc3 eeb9 eed4 1dbe 08ab 0aba 01ef b838
00000190: 3373 433c 683c 6c39 711c e0bb 7411 8e3b
000001a0: 8072 783a f82f 0239 8a67 353b 8c63 e9b7
000001b0: 0729 bf38 49dc 113d b81b 263a 1f84 2c3d
000001c0: 089b a23d fb88 513d 2f1f 523a 6876 2b3a
000001d0: 6bbc e0b9 063e 303a a5a4 86bb b8d8 adba
000001e0: e6e5 7e3c 68bc 75bb 3a88 cabc 6eed 7a39
000001f0: 2aab 0c3c 3cd4 4137 df25 b53a 276d b2bd
00000200: 16f5 8a3a 6045 ccbc 8260 40be b2db 8fbd
00000210: bff8 113a 4f65 65be 36e2 adb9 ac67 d839
00000220: 9af1 f3bb fc39 49ba bd48 bdbb 9cd0 fa3b
00000230: fc09 253c 4bec 8b3a dd74 473c 467e 72ba
00000240: 9b64 d23c a8c2 053d 3f36 f53c c87c adbd
00000250: 77d5 403d 1f9d c33c a1c1 0d3d 795e 00be
00000260: 897e 153c 9dd0 b3bc 9d5f 233d bc31 02bd
00000270: ed72 f53c 1637 00be 753c 043d 73dd 5b3d
00000280: 5c54 2a3e 3c56 463e 507d 0abd 1ee1 5dbc
00000290: acfd 63bc 30d0 30bd 08c5 1e3e 27ae 20bc
000002a0: bf31 123d 071b 1dbe 752c 8ebd b3b4 833d
000002b0: f9d3 2d3c 1a8b 9dbc 70d4 643e 2246 98be
000002c0: e39f 70bd 40a7 82be 60d2 1f3e 3090 113d
000002d0: 8b47 e2bc b0c6 423a 0bc7 6c3d 3bd2 87bd
000002e0: 3c9b ce3b 536f f23d 92b3 983d 5850 e5bd
000002f0: 0b3b f1bd 20db cc3d f335 02bd 430f b43c
00000300: 5bdf 503e b726 21bf a1bc 873d 6eb8 333e
00000310: fc4f e33e 33b4 1cbe e71a c73b 96fd 8fbc
00000320: a78c 66bd 3452 453d a6c4 15bd 0a26 0b3d
00000330: 11a5 58bc 789f 5a3d 291b abbb ed07 5a3c
00000340: 9615 63bd d8cb 713d 091a 81bd a256 5ebe
00000350: 194c c63c 57b8 d1be 5365 fc3e 466f d7bd
00000360: 5522 0dbe 2925 76bc 9c8a b4bc 78c2 5e3e
00000370: 8dd0 203f e8ba 48be 85d6 92be 3040 47be
00000380: eb06 463e 870c 91bc b01a c13c 07d0 1e3e
00000390: deaf 45bc 6e9a 3fbd 885d f83c 9fb2 f7bb
000003a0: 9700 1d3a f5f1 40bb 98e2 e7bb dd9f 723c
000003b0: 5a44 81bd 4cce 013d ae55 203d 48f3 ad3d
000003c0: fb15 20bc a43f a1bd 1cfd bbbb 2ba7 c53c
000003d0: c771 47bd 14c1 47bd 9f15 7dbc 1c4c 2abc
000003e0: af18 3cbc 6465 54bc c406 10bc b9f4 1abc
000003f0: 0dff cebb cd5a a13d bf91 b3bc 9b9a d5bd

model.encoder.layers.0.conv.bias f4 [32]
-0.10965327 0.25992906 0.2031813 0.4977484 0.52895916 0.4740912 -0.031004108 -0.24810988
-0.20075703 -0.01034737 -0.48432368 -0.1126079 -0.07849327 -0.054704208 0.08644899 0.395894
0.41522044 -0.087205425 -0.3804158 -0.47610107 -0.5274008 -0.066226326 0.30819777 0.06862333
0.09241183 -0.27774292 -0.13912876 -0.006135322 0.24286762 -0.028205179 0.03855007 -0.29979554
00000000: e591 e0bd 6c15 853e c20e 503e e1d8 fe3e
00000010: de69 073f 15bc f23e 54fc fdbc 8410 7ebe
00000020: 4093 4dbe 0488 29bc 46f9 f7be f89e e6bd
00000030: 14c1 a0bd 8511 60bd 2b0c b13d 9eb2 ca3e
00000040: c697 d43e c298 b2bd dcc5 c2be 85c3 f3be
00000050: bd03 07bf aba1 87bd 19cc 9d3e 638a 8c3d
00000060: 6a42 bd3d 5234 8ebe c577 0ebe d00a c9bb
00000070: 4ab2 783e 8c0e e7bc aee6 1d3d cd7e 99be

model.encoder.layers.1.conv3x3_1.0.weight f4 [32, 1, 3, 3]
0.35647398 0.99603987 0.1101721 0.49586213 -2.3145535 0.4506052 0.0142020425 -0.20613797
0.10596087 -0.002534354 0.10191642 -0.09217026 -0.00037009618 -1.2038666 1.2107835 0.0048946915
0.00082068396 -0.0044517964 0.006475376 0.020000927 -0.047911488 -0.009724475 -0.7337772 0.96515155
0.00075577723 -0.0018058801 0.0002586788 0.099999554 -0.060725696 -0.11601354 0.39109588 2.4579275
-2.7604904 0.034092065 -0.2142759 0.17545916 0.029620841 1.3503461e-05 -0.02626148 3.1171343
0.09884049 -3.2202818 0.0032366049 0.0083479695 -0.004717606 -0.04510943 -0.07370791 0.004852618
0.15887974 -0.9875076 0.3367174 0.018144991 0.08893774 -0.048614655 -0.30472735 -0.20056796
-0.4675133 -0.39454463 2.4687455 -0.5914636 0.0454448 -0.16416433 -0.13177843 0.008147422
0.015047888 -0.021109752 0.043735527 -1.081087 0.99785763 -0.0077352617 0.005480288 0.00029900076
0.020217024 -0.18769929 -0.06552064 -0.1143677 0.996964 0.12249098 -0.0009123844 -0.8156505
-0.02251627 0.014552962 -0.011025594 -0.51533145 -0.0043599457 -0.42210227 1.3147588 -0.007964798
-0.1280861 -0.28298965 0.5441166 0.35757494 -0.09222867 1.2944415 -1.5559994 -0.8633811
0.4884723 0.23361166 0.19502321 0.02797112 0.02464929 -0.61057776 -0.030790629 -0.36650893
1.4071137 0.0033533361 -0.16534674 -0.31182098 -0.092929274 -0.050154272 0.007157681 -0.5774614
0.83992076 -0.14525479 0.0044997437 -0.0003070529 -0.0030150597 -0.049517643 0.05379033 0.005578057
-0.028716553 -1.5501275 -0.012031432 0.005197803 0.053793255 -0.0079993 -0.026718037 -0.111916795
-0.005141078 -0.023102483 1.0702212 -0.10512986 0.02081619 -0.13403872 0.04015672 0.0120729655
0.2664086 0.01629574 0.027018163 0.58924997 -0.061251584 -0.022315226 0.109876364 -0.025900956
-0.005705851 -0.030878767 -0.010735489 -0.41538897 -0.6792482 -0.49759823 0.009970451 -0.022165462
0.008902061 -0.24839607 -0.47632787 -0.24859506 -1.0587894 3.2242017 -0.30545858 -0.064006746
-0.44122356 -0.17834114 0.20765351 0.055746827 0.18596487 0.37676877 -1.0315384 0.3030825
0.18856224 0.417987 0.1676655 -0.07147991 -0.05981437 0.018060686 -0.19427997 -0.33272168
-0.1485714 -0.13533834 -0.043237217 -0.14605783 0.014707508 0.030034162 -0.00077671383 -0.06310311
0.9977991 0.012526698 0.021408048 -0.47474545 -0.066611305 -0.25064698 0.054029558 0.2255136
-1.705048 0.06728816 1.7753567 -0.1012344 0.04022695 0.050547667 0.0081017325 0.042089313
0.109964155 -0.09988631 1.5567161 0.065140136 -0.013929244 0.19237368 -0.07489098 0.22083206
0.10141599 -0.18494785 1.6217906 0.42369306 -2.1753006 0.09504402 0.012784101 -0.047334332
-0.015449124 0.10378744 -0.023166705 -0.0033324668 -1.1367774 -0.017551685 -0.019196767 0.024883835
0.0030612962 0.20432986 -0.008141417 -0.23944946 1.5559422 0.57988656 -2.0905564 0.025838744
-0.024908531 -0.0090938695 -0.030072885 0.013962446 -0.009636778 0.050502058 -0.27462304 -0.8857293
0.044232413 -0.34453672 1.5634044 -0.0027498738 -0.051751833 -0.0055281473 -0.0017214203 0.4995172
-0.7866575 0.007928187 -0.020515002 -0.011968039 -0.004914072 -0.010641002 -0.0012613708 -2.3164568
00000000: c283 b63e 78fc 7e3f e9a1 e13d a4e1 fd3e
00000010: a521 14c0 bab5 e63e afaf 683c d515 53be
00000020: 0302 d93d 6817 26bb 8eb9 d03d c3c3 bcbd
00000030: 7809 c2b9 4d18 9abf f4fa 9a3f a663 a03b
00000040: 2b23 573a 60e0 91bb 642f d43b fcd8 a33c
00000050: d63e 44bd 6853 1fbc d3d8 3bbf 2c14 773f
00000060: 5a1f 463a 48b3 ecba 489f 8739 91cc cc3d
00000070: 82bb 78bd 8298 edbd b83d c83e af4e 1d40
00000080: e0ab 30c0 1fa4 0b3d 246b 5bbe 91ab 333e
00000090: 68a7 f23c ec8c 6237 5122 d7bc 217f 4740
000000a0: e26c ca3d 1919 4ec0 381d 543b ecc5 083c
000000b0: 2696 9abb aac4 38bd 2cf4 96bd b602 9f3b
000000c0: 5fb1 223e 4ccd 7cbf 3966 ac3e cea4 943c
000000d0: fd24 b63d 2920 47bd 3905 9cbe b061 4dbe
000000e0: e75d efbe c101 cabe edff 1d40 296a 17bf
000000f0: 5424 3a3d b21a 28be edf0 06be c47c 053c
00000100: 6b8b 763c 5cee acbc 0624 333d 0f61 8abf
00000110: 9973 7f3f 1478 fdbb fd93 b33b 34c3 9c39
00000120: 2c9e a53c 3e34 40be af2f 86bd 9d39 eabd
00000130: 0839 7f3f 8ddc fa3d 152d 6fba 79ce 50bf
00000140: 0a74 b8bc 8c6f 6e3c b1a4 34bc c3ec 03bf
00000150: e0dd 8ebb ca1d d8be 044a a83f c97e 02bc
00000160: 0129 03be 05e4 90be 3a4b 0b3f 1014 b73e
00000170: 63e2 bcbd 42b0 a53f fd2a c7bf 8b06 5dbf
00000180: 0b19 fa3e e537 6f3e 2ab4 473e b123 e53c
00000190: 4fed c93c d34e 1cbf a13c fcbc 0fa7 bbbe
000001a0: 4d1c b43f a5c3 5b3b a850 29be 00a7 9fbe
000001b0: b451 bebd 916e 4dbd fb8a ea3b 83d4 13bf
000001c0: 0c05 573f acbd 14be 9672 933b f1fb a0b9
000001d0: 4f98 45bb 03d3 4abd 4053 5c3d 22c8 b63b
000001e0: fa3e ebbc 946a c6bf 7c1f 45bc 5552 aa3b
000001f0: 5156 5c3d 7f0f 03bc c9df dabc a234 e5bd
00000200: 7d76 a8bb 6b41 bdbc 02fd 883f 534e d7bd
00000210: b786 aa3c 7241 09be 5f7b 243d b0cd 453c
00000220: b566 883e a57e 853c 3255 dd3c 16d9 163f
00000230: f1e2 7abd 6cce b6bc dc06 e13d 3e2e d4bc
00000240: 26f8 babb 78f5 fcbc e8e3 2fbc ddad d4be
00000250: 36e3 2dbf 32c5 febe 1a5b 233c 5894 b5bc
00000260: f3d9 113c 8a5b 7ebe 3fe1 f3be b48f 7ebe
00000270: 6986 87bf 5259 4e40 1165 9cbe f815 83bd
00000280: 0ee8 e1be 0f9f 36be 1fa3 543e c956 643d
00000290: 936d 3e3e d6e7 c03e 7309 84bf a12d 9b3e
000002a0: 7616 413e 6402 d63e 81b0 2b3e 0f64 92bd
000002b0: eaff 74bd 01f4 933c 54f1 46be 7f5a aabe
000002c0: 1a23 18be 2296 0abe 8219 31bd 2f90 15be
000002d0: c2f7 703c 340a f63c 629c 4bba 343c 81bd
000002e0: c36f 7f3f c83c 4d3c ee5f af3c d611 f3be
000002f0: 826b 88bd cd54 80be 194e 5d3d 0aed 663e
00000300: 033f dabf 60ce 893d e33e e33f fb53 cfbd
00000310: 04c5 243d 120b 4f3d 21bd 043c d865 2c3d
00000320: e334 e13d 3291 ccbd 7942 c73f 3168 853d
00000330: 7c37 64bc 9bfd 443e 7160 99bd cd21 623e
00000340: 30b3 cf3d f862 3dbe d696 cf3f 4cee d83e
00000350: 2038 0bc0 70a6 c23d 6874 513c a5e1 41bd
00000360: 531e 7dbc 828e d43d 1ac8 bdbc 8465 5abb
00000370: ec81 91bf 8dc8 8fbc 8a42 9dbc 2fd9 cb3c
00000380: 07a0 483b d93b 513e 9463 05bc 3d32 75be
00000390: 1d29 c73f 7273 143f adcb 05c0 c6ab d33c
000003a0: fa0c ccbc 74fe 14bc 695b f6bc bec2 643c
000003b0: 94e3 1dbc 3fdb 4e3d 649b 8cbe 28bf 62bf
000003c0: 0c2d 353d 1e67 b0be a31d c83f 3a37 34bb
000003d0: bbf9 53bd 7625 b5bb 48a1 e1ba b8c0 ff3e
000003e0: 6362 49bf 3ae5 013c 140f a8bc 9815 44bc
000003f0: 3906 a1bb 9957 2ebc 9554 a5ba d440 14c0

model.encoder.layers.1.conv3x3_1.0.bias f4 [32]
0.49875978 -0.00090000127 -0.01746213 -0.0031423718 -0.0035615587 0.19921827 0.060498014 0.002920702
0.0022569392 -0.0008972306 -0.059191935 -0.006936414 -0.0024198815 0.23239523 -0.13972044 -0.45043933
0.7898204 0.23415318 0.019260501 0.25975573 -0.01081706 -0.03063567 -0.74879 -0.0015812814
0.43296766 0.004505597 -0.012800266 0.042078316 -0.00909381 -0.014345506 0.00057605887 0.02430343
00000000: 715d ff3e 10ee 6bba be0c 8fbc 40f0 4dbb
00000010: 0a69 69bb e0ff 4b3e c4cc 773d 4069 3f3b
00000020: 28e9 133b 2034 6bba 3e73 72bd dc4a e3bb
00000030: e096 1ebb 04f9 6d3e e012 0fbe fc9f e6be
00000040: ab31 4a3f dac5 6f3e 33c8 9d3c b4fe 843e
00000050: 0a3a 31bc a8f7 fabc b4b0 3fbf 0043 cfba
00000060: f0ad dd3e b0a3 933b 35b8 51bc 505a 2c3d
00000070: 34fe 14bc 6a09 6bbc a802 173a fd17 c73c

model.encoder.layers.1.conv3x3_2.0.weight f4 [32, 1, 3, 3]
0.07246 0.17864975 -0.21412817 1.3262743 -2.1993256 -0.14129972 -0.021577256 0.18349092
-0.049542483 0.060954034 0.121717736 0.18067658 1.977191 -0.40202302 -0.12049872 -0.052453056
0.017790245 0.12508741 -0.9417961 -1.0376145 0.116844565 -1.4300798 -1.8435719 -0.44903558
-0.00747169 -0.0026300326 -0.011001437 0.4453129 -1.1209908 0.15415233 0.9934915 3.3523865
0.6529588 0.1101982 -0.61493444 -0.14898497 0.6413409 0.48185754 0.24651062 1.4146342
1.8261561 0.5603808 0.5988685 0.21639092 0.3521699 0.198304 0.50642204 -0.32353008
-1.0601442 3.5678494 -0.26181152 -0.14196353 -0.12139847 -0.19857948 -0.12766506 1.0491414
0.21326648 0.39581427 3.5096674 1.3268888 0.19528869 0.13811028 -0.03314485 0.058720626
0.053973176 -0.046732336 0.71291506 2.0837276 -0.17313422 -0.10868411 0.17157757 0.0780152
0.030294072 -0.38542628 0.19948038 -2.9607558 -0.0079023205 1.5366912 0.050171357 -0.35385838
-0.08289043 0.13116981 0.03604024 0.043320928 0.18121931 2.1866827 0.40565917 -0.017909601
0.2391047 0.059912056 -0.065245636 -1.1023234 0.48985755 0.02555836 2.804189 1.2637793
0.16253585 0.3647154 0.024501868 0.17263313 -0.35018867 -0.19337639 1.0720259 1.6159679
-0.3007117 0.12562804 0.60816586 0.10358547 0.12112206 0.22676237 0.00039931745 -0.9011307
2.99361 -0.666745 -0.047305316 -0.060403 -0.09461851 -1.5360705 1.5321373 -0.44194457
1.3385262 14.594505 0.39149773 -1.4846032 0.9953079 -1.0372012 0.8809551 1.6039753
0.3303045 0.8579028 -2.7758517 0.6501264 0.18428522 -0.18917827 0.14378239 0.5550089
1.0229276 0.07761266 -1.2225037 -6.5309534 0.2219319 0.20703842 0.11658053 0.03398279
0.20980382 0.39059883 -0.513563 3.4358602 -1.4874167 -2.7827277 0.36864752 -0.48430136
-0.13162908 -0.9645551 -0.8679409 0.94836074 1.0490354 -6.161946 -0.17330591 -0.10826657
0.11605549 -0.50200456 0.32551965 0.40720138 0.2834804 0.45745486 -3.1963248 1.7733653
0.06318845 0.7623259 0.46667102 -0.73113924 -0.05541712 0.037822474 -2.305369 -0.9372285
-0.17892067 -0.39142585 -0.14765489 0.1027224 -0.045924943 0.20897222 -0.122486785 0.6103819
3.3345432 -0.35866603 0.3379107 0.321078 0.094965205 0.71806294 0.34292206 0.4879857
1.1110473 -4.247303 2.1268888 0.8893482 -0.22020738 0.80422306 0.14726232 0.16868344
0.21928096 0.27479973 -3.166474 -0.07434382 0.56183946 1.6311724 0.6915707 -0.5370199
-0.48428285 0.1050344 -1.6782202 -1.2606643 0.060228527 -0.78641343 -0.22452143 -0.29820654
-0.23077407 -1.1158605 -0.27418646 -0.023114542 -0.056261763 0.04317392 -0.015398721 -0.01901495
-0.046894714 0.13883878 0.36505973 -0.24937727 -0.18217798 2.4100695 -0.72294396 -0.122208945
0.20974307 -0.13866125 0.15762363 -0.8336623 0.21395572 -0.52124137 -1.6238418 1.6391057
0.051175676 1.0452434 0.50336075 1.3725089 0.18001224 0.13857733 -3.2267518 0.612284
0.34843498 -0.073899694 0.15292038 -0.059672523 -0.122843996 0.49581474 0.2527103 -0.84408826
00000000: e965 943d f6ef 363e 6a44 5bbe 5bc3 a93f
00000010: c0c1 0cc0 e0b0 10be c9c2 b0bc 0be5 3b3e
00000020: 0fed 4abd f0aa 793d 2647 f93d 4803 393e
00000030: 9814 fd3f f6d5 cdbe 08c8 f6bd 04d9 56bd
00000040: d9bc 913c ea16 003e 8d19 71bf 8dd0 84bf
00000050: 344c ef3d db0c b7bf 2afa ebbf fee7 e5be
00000060: 14d5 f4bb a05c 2cbb 5f3f 34bc 0d00 e43e
00000070: a07c 8fbf 1cda 1d3e 7555 7e3f 808d 5640
00000080: 4f28 273f 98af e13d 586c 1dbf 848f 18be
00000090: eb2e 243f 08b6 f63e 486d 7c3e bc12 b53f
000000a0: 7cbf e93f 1e75 0f3f 724f 193f 9595 5d3e
000000b0: 9d4f b43e 3410 4b3e e0a4 013f bca5 a5be
000000c0: ceb2 87bf a557 6440 290c 86be e35e 11be
000000d0: c39f f8bd 6b58 4bbe a1ba 02be 444a 863f
000000e0: 8762 5a3e 2ba8 ca3e 649e 6040 7ed7 a93f
000000f0: c2f9 473e c86c 0d3e e5c2 07bd 0a85 703d
00000100: fa12 5d3d 686a 3fbd 9a81 363f cb5b 0540
00000110: 194a 31be c695 debd 08b2 2f3e 6fc6 9f3d
00000120: 462b f83c 9856 c5be 9644 4c3e 067d 3dc0
00000130: bc78 01bc 4cb2 c43f 7b80 4d3d ed2c b5be
00000140: 75c2 a9bd 6151 063e ee9e 133d 4971 313d
00000150: 8e91 393e 9cf2 0b40 8fb2 cf3e 28b7 92bc
00000160: ddd7 743e 5866 753d 819f 85bd ef18 8dbf
00000170: 9cce fa3e c45f d13c d577 3340 85c3 a13f
00000180: cc6f 263e fabb ba3e 24b8 c83c bdc6 303e
00000190: ee4b b3be 7604 46be 2538 893f 09d8 ce3f
000001a0: e2f6 99be a3a4 003e c2b0 1b3f 9e24 d43d
000001b0: d80e f83d 6534 683e 7b5b d139 80b0 66bf
000001c0: 4e97 3f40 cdaf 2abf 38c3 41bd 2369 77bd
000001d0: 59c7 c1bd f59d c4bf 131d c43f 8f46 e2be
000001e0: d454 ab3f 1883 6941 6472 c83e 7a07 bebf
000001f0: 80cc 7e3f 02c3 84bf 4686 613f 104f cd3f
00000200: ac1d a93e 859f 5b3f 8ea7 31c0 af6e 263f
00000210: 44b5 3c3e f3b7 41be b13b 133e 1015 0e3f
00000220: 4bef 823f 63f3 9e3d 007b 9cbf 92fd d0c0
00000230: 1e42 633e e101 543e c6c1 ee3d 8a31 0b3d
00000240: d0d6 563e 92fc c73e dd78 03bf 22e5 5b40
00000250: ac63 bebf 3618 32c0 5ebf bc3e 59f6 f7be
00000260: c6c9 06be 15ed 76bf 6031 5ebf c5c7 723f
00000270: cb46 863f a92e c5c0 1b77 31be ddba ddbd
00000280: 80ae ed3d 5f83 00bf 83aa a63e b37c d03e
00000290: 5824 913e 8637 ea3e 9690 4cc0 a2fd e23f
000002a0: f268 813d ca27 433f 81ef ee3e f12b 3bbf
000002b0: 10fd 62bd bdeb 1a3d 2a8b 13c0 35ee 6fbf
000002c0: fb36 37be f868 c8be d832 17be 1f60 d23d
000002d0: cb1b 3cbd d0fc 553e 5ada fabd fd41 1c3f
000002e0: 2869 5540 13a3 b7be a202 ad3e 5664 a43e
000002f0: 1e7d c23d f9d2 373f 7b93 af3e 43d9 f93e
00000300: cc36 8e3f e8e9 87c0 f21e 0840 53ac 633f
00000310: 0b7e 61be 90e1 4d3f efcb 163e 5abb 2c3e
00000320: 308b 603e 8db2 8c3e 83a7 4ac0 9341 98bd
00000330: b6d4 0f3f 42ca d03f c70a 313f 237a 09bf
00000340: ecf3 f7be 471c d73d ebcf d6bf 735d a1bf
00000350: 30b2 763d 6452 49bf f2e8 65be 87ae 98be
00000360: 0a50 6cbe 84d4 8ebf 2b62 8cbe b55a bdbc
00000370: bc72 66bd 23d7 303d eb4a 7cbc 3ec5 9bbc
00000380: ac14 40bd c12b 0e3e 1ce9 ba3e c15c 7fbe
00000390: dd8c 3abe 943e 1a40 db12 39bf af48 fabd
000003a0: e3c6 563e 37fd 0dbe 1768 213e e46a 55bf
000003b0: 3517 5b3e 1370 05bf 0cda cfbf 37ce d13f
000003c0: 969d 513d 89ca 853f 40dc 003f 5fae af3f
000003d0: 2155 383e 37e7 0d3e 1a83 4ec0 a5be 1c3f
000003e0: 1266 b23e b958 97bd 2997 1c3e 2d6b 74bd
000003f0: a295 fbbd 6edb fd3e 3f63 813e 2b16 58bf

model.encoder.layers.1.conv3x3_2.0.bias f4 [32]
0.19978683 0.0790552 0.18948863 -0.36290833 -0.083144784 -0.19971488 -0.2961288 0.0031080097
0.1803897 -0.08472105 -0.42457265 -0.15817803 -0.099598296 -0.6117892 0.055611018 0.49155426
0.022264313 0.8112318 0.060013626 0.2728002 0.04047107 -0.16434297 0.08547654 0.29036456
0.44462562 -0.10757067 -0.03242866 0.086768225 -0.20156941 0.05649563 -0.1211094 0.10971463
00000000: eb94 4c3e b1e7 a13d 4f09 423e 1fcf b9be
00000010: d047 aabd 0f82 4cbe 329e 97be c0af 4b3b
00000020: 14b8 383e 3b82 adbd 9661 d9be 6cf9 21be
00000030: 31fa cbbd 389e 1cbf 61c8 633d 00ad fb3e
00000040: a663 b63c e3ac 4f3f d9d0 753d 78ac 8b3e
00000050: fec4 253d 8649 28be 530e af3d aaaa 943e
00000060: f8a5 e33e 034e dcbd ead3 04bd 8ab3 b13d
00000070: 3668 4ebe f667 673d 3508 f8bd 10b2 e03d

model.encoder.layers.2.conv3x3_1.0.weight f4 [32, 1, 3, 3]
-0.12256078 -0.6799076 0.05095459 -0.104560845 2.428084 -0.3017419 -0.033875465 -0.53066546
-0.1163005 -0.5214258 -2.7813647 -0.4976463 -0.122350395 -0.26045793 -0.011182011 0.4230854
3.2174253 0.53489554 0.0006746159 1.1996444 -0.0013199997 -0.096638024 -2.5778537 -0.11569586
-0.0017423292 1.0411955 -0.00096401555 -0.04800688 -0.060964134 0.0940408 -0.036430754 -0.9798187
-0.3723497 0.09977859 -0.38822588 -0.31035018 -0.19549945 -0.7520185 -0.19256814 -0.035971254
-0.6955251 0.16534065 0.46079183 1.3981184 0.17198275 0.052603558 0.032337643 -0.041910887
0.03510297 -1.550039 0.115156926 0.052472796 0.21248719 -0.026156953 0.12628186 0.08574663
0.12537657 0.95987576 -0.49700388 0.022222936 -0.060348947 -0.10475593 0.1363134 0.0069909436
-0.19558802 0.05067965 0.12876934 1.8238418 0.033512004 -0.02918546 0.06534371 -0.026526505
0.001841692 -0.029192952 -0.0017892303 -0.38078406 1.2389073 -0.48974216 0.00858926 -0.25260422
-0.0056758593 -0.07688402 -0.8797567 -0.012023756 0.0709424 1.9829037 -0.11139254 -0.065085575
-0.762535 -0.019059634 -0.08832128 -0.14428292 -0.05125377 0.15933214 0.9645259 -0.13781384
0.048449777 0.20751697 0.088181816 0.58726984 1.2262172 0.18638705 -0.21975344 -1.6541933
-0.32967097 -0.1163537 0.07492631 -0.054346915 0.17980315 0.29978117 0.21059479 -0.37965298
-0.2730336 0.31132028 0.37192968 -0.034356583 0.016673967 -0.5029095 -1.6063787 -0.24443722
0.070372015 0.1120394 0.077435814 0.26440048 1.6193233 0.23747201 0.019177355 -0.106650725
0.15015197 -0.05167725 -1.1047232 0.2828164 0.10246536 0.03986281 -0.046524834 -0.028966159
0.045455817 -0.0315087 -1.3586857 1.1938952 -0.0326898 -0.13588059 0.13363032 -0.03547593
0.01739628 0.04308406 -0.024956957 -0.27940336 1.032243 -0.16423208 -0.009136541 -0.24101478
-0.024502005 0.2842177 4.0251937 0.106686406 -0.44146562 -3.5192578 -0.3819068 0.20978816
-0.64007574 0.18037786 -0.023952438 -0.04644336 -0.0047881445 -0.020092683 1.0813563 -0.12932056
-0.029978294 -0.086062685 0.014669027 0.16692317 0.28618228 0.24488388 0.25830775 -0.47420883
0.4088567 0.08261564 0.35905355 -0.049664427 0.045555178 -0.35131842 0.121730275 0.17872792
1.2045243 0.16022168 0.10115166 1.1722479 0.082688734 0.0063028256 -0.3340416 -0.031815346
-0.09168634 1.9427426 -0.27086297 0.06757256 -0.29169315 -0.12480787 -0.1200844 0.043516584
0.05274789 0.12512125 -0.66654885 -0.2642959 0.009025004 -0.42662507 -0.4343164 0.020908048
0.074086964 0.035728533 -0.039430138 1.2929615 -0.061782725 0.060765527 0.04114882 0.07149974
-0.19241777 -0.15714586 -0.06560898 -0.9752862 -0.09171712 0.16982053 -0.15284832 -0.05792563
-0.010238059 0.0060765576 0.05861387 0.005477665 -0.21950924 0.4290821 0.53783286 0.010813606
0.4115796 -0.0062599233 -0.04554674 0.27452546 0.03298402 -0.3270714 -1.3430344 -0.51756436
0.051388476 1.4513497 0.11129977 -0.095157035 0.06316556 -0.021045852 -0.32273707 2.199554
-1.0491093 0.024734618 0.0033356883 -0.19198115 -0.0021644253 -0.38637432 0.0055667358 -0.027885705
00000000: 2501 fbbd 6d0e 2ebf c3b5 503d ff23 d6bd
00000010: ba65 1b40 ea7d 9abe 00c1 0abd b1d9 07bf
00000020: f52e eebd 297c 05bf e101 32c0 7fcb febe
00000030: d892 fabd be5a 85be c134 37bc a69e d83e
00000040: 4cea 4d40 eaee 083f b5d8 303a f38d 993f
00000050: d703 adba 28ea c5bd 8efb 24c0 f3f1 ecbd
00000060: de5e e4ba e545 853f fdb5 7cba dda2 44bd
00000070: 87b5 79bd 7798 c03d 6a38 15bd 66d5 7abf
00000080: 9fa4 bebe b858 cc3d 8bc5 c6be 38e6 9ebe
00000090: 0231 48be 4984 40bf 9530 45be 9856 13bd
000000a0: ef0d 32bf 0f4f 293e e8ec eb3e 8bf5 b23f
000000b0: 3f1c 303e d476 573d 7a74 043d c0aa 2bbd
000000c0: 22c8 0f3d ae67 c6bf 65d7 eb3d b7ed 563d
000000d0: 3e96 593e 1b47 d6bc 0850 013e ee9b af3d
000000e0: b762 003e 6bba 753f 4b77 febe e00c b63c
000000f0: 7530 77bd 478a d6bd bd95 0b3e 4914 e53b
00000100: 3a48 48be 7795 4f3d 1cdc 033e a673 e93f
00000110: e243 093d 5916 efbc ecd2 853d 1d4e d9bc
00000120: ee64 f13a 0f26 efbc 9b84 eaba 21f6 c2be
00000130: 8494 9e3f 7cbf fabe f8b9 0c3c 5755 81be
00000140: 8ffc b9bb 5e75 9dbd bc37 61bf 4aff 44bc
00000150: 404a 913d cacf fd3f c621 e4bd 964b 85bd
00000160: 7e35 43bf f322 9cbc cae1 b4bd e7be 13be
00000170: 79ef 51bd f727 233e 2beb 763f 121f 0dbe
00000180: 4673 463d 547f 543e ab98 b43d 5157 163f
00000190: aff4 9c3f 3fdc 3e3e 0c07 61be 9bbc d3bf
000001a0: a2ca a8be d94a eebd f772 993d df9a 5ebd
000001b0: 511e 383e eb7c 993e 29a6 573e e061 c2be
000001c0: 0fcb 8bbe 5f65 9f3e 916d be3e 7db9 0cbd
000001d0: d897 883c adbe 00bf d19d cdbf c04d 7abe
000001e0: 341f 903d ea74 e53d ab96 9e3d 805f 873e
000001f0: fc45 cf3f dd2b 733e d419 9d3c b26b dabd
00000200: 70c1 193e 86ab 53bd 9267 8dbf 50cd 903e
00000210: 5cd9 d13d 3047 233d d390 3ebd 704a edbc
00000220: e12f 3a3d 440f 01bd 6ae9 adbf 8fd1 983f
00000230: bde5 05bd 4824 0bbe 63d6 083e 354f 11bd
00000240: a582 8e3c e978 303d 8872 ccbc f50d 8fbe
00000250: 8a20 843f 742c 28be 6eb1 15bc 94cc 76be
00000260: 6eb8 c8bc fb84 913e 63ce 8040 677e da3d
00000270: c807 e2be 853b 61c0 4a89 c3be b5d2 563e
00000280: 01dc 23bf f9b4 383e e737 c4bc 653b 3ebd
00000290: dee5 9cbb 6999 a4bc e269 8a3f 9c6c 04be
000002a0: 0a95 f5bc a241 b0bd 5c56 703c e8ed 2a3e
000002b0: 7c86 923e d7c2 7a3e ea40 843e 80cb f2be
000002c0: aa55 d13e 6332 a93d ded5 b73e ed6c 4bbd
000002d0: 1198 3a3d 02e0 b3be b94d f93d 7404 373e
000002e0: da2d 9a3f 2711 243e 9a28 cf3d 380c 963f
000002f0: b658 a93d ef87 ce3b 8007 abbe cf50 02bd
00000300: 0cc6 bbbd caab f83f 8dae 8abe 7b63 8a3d
00000310: ce58 95be 459b ffbd cfee f5bd 723e 323d
00000320: 2c0e 583d c91f 003e f2a2 2abf cb51 87be
00000330: 9cdd 133c 9a6e dabe b85e debe 5b47 ab3c
00000340: e8ba 973d 1558 123d 7f81 21bd c37f a53f
00000350: e20f 7dbd 46e5 783d aa8b 283d 756e 923d
00000360: 2a09 45be d8ea 20be 005e 86bd 5bac 79bf
00000370: 2fd6 bbbd 6fe5 2d3e 4584 1cbe 6d43 6dbd
00000380: 88bd 27bc dc1d c73b 1915 703d fc7d b33b
00000390: 08c7 60be a6b0 db3e 6aaf 093f 8d2b 313c
000003a0: 90ba d23e 0b20 cdbb 388f 3abd 9a8e 8c3e
000003b0: 401a 073d e775 a7be 8de8 abbf 197f 04bf
000003c0: b97c 523d d4c5 b93f 22f1 e33d b1e1 c2bd
000003d0: f25c 813d 5a68 acbc cb3d a5be 7ec5 0c40
000003e0: 3749 86bf 41a0 ca3c 909b 5a3b b596 44be
000003f0: 08d9 0dbb dbd2 c5be 2a69 b63b 9070 e4bc

model.encoder.layers.2.conv3x3_1.0.bias f4 [32]
-0.069835976 -0.008505949 0.045779318 0.19790421 -0.10780698 0.38462144 0.15659066 0.013651758
-0.0005966984 -0.00652498 -0.043086104 0.006642406 -0.0013040393 -0.026919436 0.615526 0.031616375
-0.00070050545 0.010558367 0.027933013 -0.19786294 -0.33043778 -0.09749752 0.20712094 -0.014496654
0.30495474 -0.25969458 -0.0060763396 -0.050464556 -0.054746322 -0.07202571 -0.020513974 0.13115296
00000000: 2a06 8fbd 895c 0bbc 1883 3b3d 67a7 4a3e
00000010: e8c9 dcbd 1aed c43e 4d59 203e a0ab 5f3c
00000020: c06b 1cba 80cf d5bb 0e7b 30bd 8aa8 d93b
00000030: 4cec aaba 2686 dcbc 1d93 1d3f 2c80 013d
00000040: 20a2 37ba 00fd 2c3c c6d3 e43c 959c 4abe
00000050: 242f a9be c8ac c7bd 8317 543e 6083 6dbc
00000060: 0723 9c3e b0f6 84be 081c c7bb ecb3 4ebd
00000070: ae3d 60bd 3782 93bd ec0c a8bc f64c 063e

model.encoder.layers.2.conv3x3_2.0.weight f4 [32, 1, 3, 3]
0.11616385 0.28609574 0.16628933 0.20858084 1.557394 0.27913666 0.11998738 0.13888678
0.18472019 0.073470935 0.0023286063 0.060557317 -0.023314524 -0.43657398 -0.321142 -0.20000799
2.7098775 -0.1595526 0.27379355 -0.2543796 0.06914768 2.9373713 -4.2314053 -0.97125906
0.32786047 0.21649675 0.08134812 -0.001756385 -0.30109844 0.010152829 -0.65891695 -1.0763178
-0.5251186 0.4839719 -1.7606777 -0.35907498 -0.25025618 -1.6483886 -0.27768946 -0.35025406
-2.419918 -0.23527147 -0.0013838102 -1.6432555 -0.22635053 0.24460997 -0.5102039 0.2407808
0.14461148 -3.458809 2.3708267 -0.06677351 -0.13696633 0.15302783 0.14602973 0.46342513
-0.5035318 0.15435709 4.070879 -2.0084853 -0.01584166 1.0568162 -0.9295028 0.7248209
0.7366846 0.67224014 1.1033355 -0.805791 0.94444686 0.72186786 0.24781178 0.7250633
-0.032024585 0.4182058 -0.11694403 -0.22287165 2.7204616 -0.2019869 0.2920473 -3.040793
0.2799731 0.45851168 0.24877346 0.30008432 0.22296032 -5.031777 0.61848634 0.3458426
1.053903 0.26791352 0.042294584 0.5125169 -0.6179009 -0.8767891 -1.9067689 2.9698136
0.66146094 0.55378914 -0.7908408 -0.004698355 0.5384928 -0.8601443 1.1608628 3.0998456
-4.316413 0.10867431 -0.01326171 -0.82361 -0.20560603 -0.3494898 0.7064941 -0.8703254
-2.2950346 4.325056 -0.13388026 -0.39548522 1.5208083 -0.4168223 0.76593393 0.25760812
-1.2568874 2.5750089 0.25316983 -0.93959105 -1.2395276 -0.16092148 0.020705817 -0.0948347
0.04073498 0.3598655 3.1359923 0.44136512 -0.50660104 -3.1610446 -0.4608918 0.274908
2.106408 0.50763386 0.57311666 -4.6099925 0.24401546 0.1854627 1.482819 0.4382396
-0.01131766 0.43667436 -0.0023901756 0.09260752 4.673448 -0.35243934 0.00082634203 -2.6918156
-0.0011182606 -0.026961938 -1.6640967 -0.051002562 -0.18052211 -0.70055586 -0.24336223 -0.012902407
0.13674347 0.045676865 -1.347215 0.058972858 0.15736902 -4.9188986 2.4729729 1.2811882
-1.0820607 1.4808367 0.34215468 -0.4223311 0.5712702 0.5224787 -2.2411253 0.35824808
1.7228893 -0.26181352 -1.9281263 0.25848165 0.4467384 0.84849083 -0.097823426 0.6059082
-0.51040506 -0.5399084 -0.29615074 -2.6592786 -0.4037511 0.2702037 0.68155664 0.509487
0.3726093 0.012000532 0.7744277 0.4628471 0.9768304 0.6749346 -0.17275651 1.2107265
0.017079812 -0.04667007 0.429669 0.45092732 0.1940088 0.25857782 0.4392538 0.26772836
0.9263326 0.8006177 1.9095843 -5.799549 1.4119855 0.3554395 0.020346731 0.38335067
0.0426198 0.5975472 -0.017813535 0.20060374 2.1597161 0.21225397 0.043461055 0.46247983
0.14115848 0.11620416 0.95906687 -0.11995526 -0.18347819 2.7111177 -1.1026746 -0.06123483
-2.1664288 -0.33719218 0.23705764 -0.4412505 0.15622108 -0.49399436 1.2162913 0.39129612
-0.31346464 2.0069437 0.13472357 0.030646723 -2.0442603 0.3057203 -0.0678821 1.1119277
-0.014639092 -0.07580999 1.5714908 -0.10557235 -0.77260906 0.93287903 -1.151165 -0.7011123
00000000: 50e7 ed3d 247b 923e c047 2a3e 3796 553e
00000010: b058 c73f 00eb 8e3e f2bb f53d 5638 0e3e
00000020: 4a27 3d3e ee77 963d 889b 183b f30a 783d
00000030: 1afe bebc a086 dfbe b96c a4be e5ce 4cbe
00000040: a26e 2d40 c261 23be ab2e 8c3e 0b3e 82be
00000050: 4d9d 8d3d e4fd 3b40 ac67 87c0 6fa4 78bf
00000060: 54dd a73e 53b1 5d3e d899 a63d 8036 e6ba
00000070: 9329 9abe 0d58 263c c8ae 28bf c8c4 89bf
00000080: 2c6e 06bf 2acb f73e e35d e1bf add8 b7be
00000090: 9421 80be 66fe d2bf 502d 8ebe 8054 b3be
000000a0: f0df 1ac0 01eb 70be f760 b5ba 3256 d2bf
000000b0: 6fc8 67be 097b 7a3e b99c 02bf 3e8f 763e
000000c0: 0815 143e 205d 5dc0 a0bb 1740 8dc0 88bd
000000d0: e740 0cbe 54b3 1c3e d188 153e 0f46 ed3e
000000e0: 76e7 00bf c90f 1e3e a444 8240 068b 00c0
000000f0: 5ec6 81bc c145 873f e5f3 6dbf dd8d 393f
00000100: 5d97 3c3f ee17 2c3f 193a 8d3f 5248 4ebf
00000110: 45c7 713f 55cc 383f 5fc2 7d3e c09d 393f
00000120: 362c 03bd 121f d63e 5a80 efbd 7738 64be
00000130: 0b1c 2e40 a7d5 4ebe 3987 953e 5a9c 42c0
00000140: a258 8f3e 0bc2 ea3e 78be 7e3e a7a4 993e
00000150: b64f 643e 5104 a1c0 1f55 1e3f 4812 b13e
00000160: 4be6 863f f62b 893e 163d 2d3d 4f34 033f
00000170: c12e 1ebf 4075 60bf 0111 f4bf 6d11 3e40
00000180: 8155 293f 20c5 0d3f 8b74 4abf a9f4 99bb
00000190: aada 093f 6b32 5cbf 2797 943f df63 4640
000001a0: 0e20 8ac0 a390 de3d a547 59bc 1bd8 52bf
000001b0: 638a 52be 54f0 b2be ccdc 343f a5cd 5ebf
000001c0: d9e1 12c0 dc66 8a40 e817 09be 0a7d cabe
000001d0: d9a9 c23f bc69 d5be 3f14 443f 36e5 833e
000001e0: b0e1 a0bf f2cc 2440 7a9f 813e 0a89 70bf
000001f0: d7a8 9ebf 9ac8 24be 3f9f a93c b238 c2bd
00000200: b9d9 263d 4a40 b83e 19b4 4840 9cfa e13e
00000210: 9bb0 01bf 8e4e 4ac0 03fa ebbe bec0 8c3e
00000220: 64cf 0640 4bf4 013f c6b7 123f 0f85 93c0
00000230: 30df 793e efe9 3d3e 03cd bd3f f160 e03e
00000240: b56d 39bc c893 df3e 7ea4 1cbb 03a9 bd3d
00000250: e38c 9540 ee72 b4be e09e 583a b546 2cc0
00000260: 9992 92ba 48df dcbc 1f01 d5bf 10e8 50bd
00000270: cada 38be a157 33bf f333 79be 9e64 53bc
00000280: 7b06 0c3e aa17 3b3d 8b71 acbf 868d 713d
00000290: 5825 213e 9e67 9dc0 3045 1e40 fafd a33f
000002a0: f780 8abf 0f8c bd3f e62e af3e c83b d8be
000002b0: c43e 123f 2ac1 053f 996e 0fc0 4b6c b73e
000002c0: a387 dc3f 6c0c 86be d8cc f6bf b557 843e
000002d0: e5ba e43e b236 593f a657 c8bd cd1c 1b3f
000002e0: e8a9 02bf 7037 0abf 12a1 97be 9f31 2ac0
000002f0: 77b8 cebe 2458 8a3e 7f7a 2e3f bd6d 023f
00000300: a5c6 be3e e19d 443c e540 463f 4cfa ec3e
00000310: 8f11 7a3f 84c8 2c3f 15e7 30be 16f9 9a3f
00000320: f6ea 8b3c 1e29 3fbd 93fd db3e f2df e63e
00000330: 3eaa 463e 5064 843e e0e5 e03e b113 893e
00000340: 2224 6d3f 48f5 4c3f 426d f43f e895 b9c0
00000350: f1bb b43f 2bfc b53e 30ae a63c 8a46 c43e
00000360: 1992 2e3d daf8 183f b1ed 91bc 116b 4d3e
00000370: ca38 0a40 1b59 593e 3804 323d 28ca ec3e
00000380: d98b 103e 72fc ed3d 6885 753f 1aab f5bd
00000390: b5e1 3bbe f482 2d40 7124 8dbf 60d1 7abd
000003a0: c5a6 0ac0 74a4 acbe 3dbf 723e 96eb e1be
000003b0: 6bf8 1f3e d4ec fcbe 6faf 9b3f f757 c83e
000003c0: 707e a0be c471 0040 faf4 093e d60e fb3c
000003d0: 29d5 02c0 5f87 9c3e c505 8bbd a653 8e3f
000003e0: cdd8 6fbc 4542 9bbd 9c26 c93f 5136 d8bd
000003f0: b5c9 45bf 29d1 6e3f 6059 93bf 187c 33bf

model.encoder.layers.2.conv3x3_2.0.bias f4 [32]
0.008991264 0.17289008 0.1433718 0.69166285 0.4673344 0.07827157 -0.17663705 -0.43003458
-0.014179188 0.41155937 -0.009471048 0.0075989496 -0.35946792 0.04826044 0.019649256 -0.15017709
-0.14621294 0.3511459 0.06730324 0.076864116 0.33903438 0.004052281 -0.011072739 0.2730097
0.00078516454 0.11103836 0.028020704 0.2833559 0.1942768 -0.101203665 -0.33719453 -0.08452565
00000000: 1850 133c 190a 313e 0fd0 123e d110 313f
00000010: 7446 ef3e d84c a03d 58e0 34be 7e2d dcbe
00000020: d34f 68bc e9b7 d23e 742c 1bbc 9c00 f93b
00000030: 2e0c b8be bdac 453d 7af7 a03c 06c8 19be
00000040: d8b8 15be 65c9 b33e 48d6 893d ef6a 9d3d
00000050: ea95 ad3e ffc8 843b 6f6a 35bc edc7 8b3e
00000060: 80d3 4d3a 1468 e33d ad8b e53c 0614 913e
00000070: 7ff0 463e de43 cfbd c3a4 acbe c91b adbd

model.encoder.layers.3.conv3x3_1.0.weight f4 [32, 1, 3, 3]
0.0027422623 -0.004095707 0.01994664 0.13913383 0.602864 0.15364799 0.072548896 0.5039028
-0.055804215 -0.2742595 -0.4476798 -0.06269901 -0.57013255 0.92286754 0.54309815 -0.059408627
0.38573617 -0.045468677 -0.3882524 -0.68066776 -0.37131205 -0.08970631 -0.20625737 0.10528095
0.29756016 0.98021954 0.31932446 -0.049035657 0.3658536 -0.13291113 0.08757364 1.8310764
-0.04876111 -0.046769362 -2.3605912 0.18598868 -0.23612046 -0.61205524 -0.32960713 -0.2489965
2.5318177 -0.642929 -0.23661555 0.12542844 -0.4219606 -0.20856428 -0.008351818 -0.042178713
0.007812962 1.4942323 -0.036998145 0.27359343 -1.3963434 -0.02350431 -0.09913242 -0.39139175
0.055231173 -0.15016061 1.1391273 -0.05378329 0.034130845 0.61365545 0.05276612 -0.0014530831
0.17061503 -0.00066091784 -0.28156126 1.6580169 -0.11900584 0.00028189723 -0.07280967 -0.00035239715
0.06413648 -0.044210084 0.46510047 0.6459199 -2.2295318 1.2146322 0.2059557 -0.68881226
0.26692912 0.18222228 0.09345051 -0.51595515 0.28739208 0.64541113 -1.0160041 0.21713527
0.4510721 -0.17199464 -0.16190149 -0.1395807 0.30549347 0.11298266 1.7390094 -1.795772
0.053968772 -0.30444843 0.05899742 -0.089991026 0.09990811 0.71785647 -0.11489979 -1.7552522
0.30244204 0.59999365 -0.32713732 0.30035707 -0.34353492 0.4271505 -0.3998159 0.2103269
1.4641545 -0.4635902 -0.31770062 -0.7202415 -0.8480025 -0.026408816 0.2302261 0.0023871677
-0.060558207 1.0220474 -0.0019619644 -0.047314953 0.39557832 -0.07889842 0.0842951 -0.12330436
0.13564824 0.0972656 1.1805768 -0.048012003 0.09560778 -0.002648173 0.04977794 -0.28587016
0.4970612 -0.22073372 0.044179603 1.5820719 0.16182007 -0.5858835 -0.6614004 -0.2977786
-0.00622224 0.1156962 0.028285202 -0.049161915 -1.3552816 -0.036690265 0.019530592 0.34816605
-0.07215974 0.12998232 -0.32654774 0.17115095 0.018687494 -2.747964 -0.13245904 0.60435486
1.9546559 0.62898934 -0.067027174 -0.41980693 0.04947312 -0.6215472 0.8376479 -0.3306975
0.23579767 1.1474204 -0.09257853 0.08131407 -0.37602195 -0.049457718 0.07455011 -2.565404
0.068105474 0.0579672 2.6294732 0.05191009 0.09149887 0.108134516 -0.65054065 -0.07318021
0.017221196 1.4544377 -0.2001457 0.063652195 0.0813891 0.09520832 0.3942632 0.04915932
0.105473794 1.0656363 0.222786 0.14127316 0.3124378 0.21985811 0.6179657 0.6132055
-0.15837818 0.36029935 -2.191339 0.058427278 -0.20313697 -0.17315207 1.1127805 0.13470373
-0.016495291 0.014189589 0.15395585 1.2694194 -0.25835666 0.08767355 0.0016096076 0.036800843
-0.12910682 -0.2494354 -0.102564596 0.4005316 -1.002349 -0.050593104 -0.29694188 1.2482985
0.09959793 -0.0770078 -0.22559498 -0.26225135 0.599845 0.90555805 -0.6438096 -0.11886337
0.005123863 0.06361309 0.0056243073 -0.29315558 -0.065186486 0.0876542 1.6271737 -0.19085445
0.18658595 0.30117476 -0.123594046 -0.27402928 0.03921931 -0.38348857 -0.13707094 0.07365655
0.04509474 -0.2739046 -0.12262763 -0.3821684 0.076847985 0.94476604 0.11205877 0.08737731
00000000: 87b7 333b 4835 86bb 2367 a33c 1979 0e3e
00000010: 4c55 1a3f e655 1d3e 8494 943d c6ff 003f
00000020: f692 64bd be6b 8cbe 4936 e5be 5768 80bd
00000030: 35f4 11bf 0c41 6c3f 7b08 0b3f 7656 73bd
00000040: 367f c53e 5d3d 3abd 05c9 c6be 3e40 2ebf
00000050: 9d1c bebe f1b7 b7bd 2235 53be 8a9d d73d
00000060: ce59 983e abef 7a3f 7f7e a33e 9dd9 48bd
00000070: 2a51 bb3e db19 08be cf59 b33d b660 ea3f
00000080: bbb9 47bd 3b91 3fbd ed13 17c0 d173 3e3e
00000090: 90c9 71be a7af 1cbf 44c2 a8be f0f8 7ebe
000000a0: 4d09 2240 ff96 24bf 594b 72be 5070 003e
000000b0: 380b d8be e091 55be 10d6 08bc 96c3 2cbd
000000c0: f001 003c 0143 bf3f 5e8b 17bd 7014 8c3e
000000d0: 61bb b2bf 1c8c c0bc f005 cbbd 8064 c8be
000000e0: 153a 623d b4c3 19be ecce 913f de4b 5cbd
000000f0: c9cc 0b3d 8618 1d3f 4921 583d 6175 beba
00000100: b5b5 2e3e 7241 2dba cc28 90be e639 d43f
00000110: 55b9 f3bd 9bcb 9339 3c1d 95bd f2c1 b8b9
00000120: fd59 833d a215 35bd a621 ee3e 025b 253f
00000130: a6b0 0ec0 1179 9b3f 0de6 523e 0056 30bf
00000140: efaa 883e 7a98 3a3e fb62 bf3d a315 04bf
00000150: 0e25 933e aa39 253f 6c0c 82bf b558 5e3e
00000160: ecf2 e63e 5d1f 30be 81c9 25be 3eee 0ebe
00000170: a469 9c3e 7463 e73d dc97 de3f dbdb e5bf
00000180: 5c0e 5d3d aae0 9bbe 47a7 713d 374d b8bd
00000190: a09c cc3d 71c5 373f 9550 ebbd 1bac e0bf
000001a0: afd9 9a3e 2f99 193f 8b7e a7be 67c8 993e
000001b0: cfe3 afbe 78b3 da3e abb4 ccbe ef5f 573e
000001c0: 6a69 bb3f b25b edbe a8a9 a2be bf61 38bf
000001d0: b116 59bf 4d57 d8bc 64c0 6b3e 0772 1c3b
000001e0: e20b 78bd 73d2 823f 4d94 00bb 53cd 41bd
000001f0: 3e89 ca3e 7f95 a1bd e9a2 ac3d ff86 fcbd
00000200: 5fe7 0a3e 3033 c73d 241d 973f 3ca8 44bd
00000210: 03ce c33d f88c 2dbb f4e3 4b3d 935d 92be
00000220: ce7e fe3e 0508 62be acf5 343d 5581 ca3f
00000230: 29b4 253e 76fc 15bf 8951 29bf 7076 98be
00000240: efe3 cbbb 21f2 ec3d 5eb6 e73c 015e 49bd
00000250: de79 adbf 8848 16bd 9ffe 9f3c d242 b23e
00000260: 7cc8 93bd 161a 053e 4431 a7be 3242 2f3e
00000270: 8416 993c a4de 2fc0 58a3 07be 00b7 1a3f
00000280: 2a32 fa3f 7205 213f 8b45 89bd eff0 d6be
00000290: 54a4 4a3d b81d 1fbf 1870 563f 2f51 a9be
000002a0: f274 713e acde 923f d099 bdbd fe87 a63d
000002b0: f385 c0be 2d94 4abd baad 983d 942f 24c0
000002c0: e27a 8b3d 046f 6d3d 4a49 2840 ad9f 543d
000002d0: c263 bb3d a175 dd3d d589 26bf 82df 95bd
000002e0: 7713 8d3c 042b ba3f fff2 4cbe 155c 823d
000002f0: 54af a63d 94fc c23d dedc c93e 485b 493d
00000300: a502 d83d c566 883f 0322 643e e9a9 103e
00000310: d9f7 9f3e 7c22 613e 0033 1e3f 09fb 1c3f
00000320: e42d 22be 2879 b83e e63e 0cc0 7151 6f3d
00000330: 2303 50be c74e 31be 976f 8e3f c6ef 093e
00000340: 2221 87bc 737b 683c 9aa6 1d3e 567c a23f
00000350: 5347 84be 318e b33d 78f9 d23a 7bbc 163d
00000360: 9434 04be fe6b 7fbe 630d d2bd 7a12 cd3e
00000370: f94c 80bf b73a 4fbd c408 98be 3fc8 9f3f
00000380: 00fa cb3d 44b6 9dbd 5f02 67be cf45 86be
00000390: 718f 193f a7d2 673f b5d0 24bf a36e f3bd
000003a0: 14e6 a73b 9447 823d 1c4c b83b 7d18 96be
000003b0: 7e80 85bd 0c84 b33d 3a47 d03f 596f 43be
000003c0: 6310 3f3e 9433 9a3e e01e fdbd 914d 8cbe
000003d0: 6da4 203d 9d58 c4be 535c 0cbe 3fd9 963d
000003e0: 43b5 383d 393d 8cbe 3224 fbbd 94ab c3be
000003f0: 7a62 9d3d 30dc 713f 127f e53d e0f2 b23d

model.encoder.layers.3.conv3x3_1.0.bias f4 [32]
-0.11327617 0.010146193 0.015715297 0.000105870145 0.31751695 -0.0062809926 0.031441852 -0.052494504
0.010769041 -0.044505972 0.0075430423 0.08109236 -0.08010118 -0.10608928 0.0011839569 -0.052373823
0.9378978 -0.06593935 -0.0722463 0.060488302 -0.14950041 -0.24722068 0.0008525364 -0.025520116
0.023330368 -0.003554061 -0.21723214 0.3575223 0.12480456 0.013938472 0.3084029 0.009091958
00000000: 56fd e7bd 383c 263c 5ebd 803c 9a06 de38
00000010: 9591 a23e c9d0 cdbb 2cc9 003d 7a04 57bd
00000020: a270 303c e54b 36bd a02b f73b c013 a63d
00000030: 160c a4bd 5645 d9bd 002f 9b3a ef85 56bd
00000040: 121a 703f 360b 87bd def5 93bd 95c2 773d
00000050: a316 19be 6b27 7dbe c07c 5f3a 900f d1bc
00000060: 541f bf3c 40eb 68bb 1a72 5ebe 2a0d b73e
00000070: 8899 ff3d 305e 643c fce6 9d3e 70f6 143c
